…
I1019 00:45:23.414096 127278 net.cpp:322] The NetState phase (0) differed from the phase (1) specified by a rule in layer data
I1019 00:45:23.414127 127278 net.cpp:322] The NetState phase (0) differed from the phase (1) specified by a rule in layer testLoss
I1019 00:45:23.414319 127278 net.cpp:58] Initializing net from parameters:
name: "videoNetCNN_cr50_model_10172016.prototxt"
state {
  phase: TRAIN
  level: 0
  stage: ""
}
layer {
  name: "data"
  type: "HDF5Data"
  top: "data"
  top: "label"
  include {
    phase: TRAIN
  }
  hdf5_data_param {
    source: "trainCNN_cr50.txt"
    batch_size: 100
  }
}
layer {
  name: "fc1"
  type: "InnerProduct"
  bottom: "data"
  top: "fc1"
  param {
    lr_mult: 1
    decay_mult: 1
  }
  param {
    lr_mult: 2
    decay_mult: 0
  }
  inner_product_param {
    num_output: 1024
    weight_filler {
      type: "gaussian"
      std: 0.01
    }
    bias_filler {
      type: "constant"
      value: 0
    }
  }
}
layer {
  name: "reshape"
  type: "Reshape"
  bottom: "fc1"
  top: "reshape"
  reshape_param {
    shape {
      dim: 0
      dim: 1
      dim: 32
      dim: 32
    }
  }
}
layer {
  name: "conv1"
  type: "Convolution"
  bottom: "reshape"
  top: "conv1"
  param {
    lr_mult: 1
  }
  param {
    lr_mult: 0.1
  }
  convolution_param {
    num_output: 128
    pad: 0
    kernel_size: 1
    stride: 1
    weight_filler {
      type: "gaussian"
      std: 0.1
    }
    bias_filler {
      type: "constant"
      value: 0
    }
  }
}
layer {
  name: "relu1"
  type: "ReLU"
  bottom: "conv1"
  top: "relu1"
}
layer {
  name: "conv2"
  type: "Convolution"
  bottom: "relu1"
  top: "conv2"
  param {
    lr_mult: 1
  }
  param {
    lr_mult: 0.1
  }
  convolution_param {
    num_output: 64
    pad: 0
    kernel_size: 1
    stride: 1
    weight_filler {
      type: "gaussian"
      std: 0.1
    }
    bias_filler {
      type: "constant"
      value: 0
    }
  }
}
layer {
  name: "relu2"
  type: "ReLU"
  bottom: "conv2"
  top: "relu2"
}
layer {
  name: "conv3"
  type: "Convolution"
  bottom: "relu2"
  top: "conv3"
  param {
    lr_mult: 0.1
  }
  param {
    lr_mult: 0.1
  }
  convolution_param {
    num_output: 32
    pad: 1
    kernel_size: 3
    stride: 1
    weight_filler {
      type: "gaussian"
      std: 0.1
    }
    bias_filler {
      type: "constant"
      value: 0
    }
  }
}
layer {
  name: "relu3"
  type: "ReLU"
  bottom: "conv3"
  top: "relu3"
}
layer {
  name: "conv4"
  type: "Convolution"
  bottom: "relu3"
  top: "conv4"
  param {
    lr_mult: 1
  }
  param {
    lr_mult: 0.1
  }
  convolution_param {
    num_output: 32
    pad: 1
    kernel_size: 3
    stride: 1
    weight_filler {
      type: "gaussian"
      std: 0.1
    }
    bias_filler {
      type: "constant"
      value: 0
    }
  }
}
layer {
  name: "relu4"
  type: "ReLU"
  bottom: "conv4"
  top: "relu4"
}
layer {
  name: "conv5"
  type: "Convolution"
  bottom: "relu4"
  top: "conv5"
  param {
    lr_mult: 1
  }
  param {
    lr_mult: 0.1
  }
  convolution_param {
    num_output: 16
    pad: 1
    kernel_size: 3
    stride: 1
    weight_filler {
      type: "gaussian"
      std: 0.1
    }
    bias_filler {
      type: "constant"
      value: 0
    }
  }
}
layer {
  name: "relu5"
  type: "ReLU"
  bottom: "conv5"
  top: "relu5"
}
layer {
  name: "conv6"
  type: "Convolution"
  bottom: "relu5"
  top: "conv6"
  param {
    lr_mult: 0.1
  }
  param {
    lr_mult: 0.1
  }
  convolution_param {
    num_output: 16
    pad: 1
    kernel_size: 3
    stride: 1
    weight_filler {
      type: "gaussian"
      std: 0.1
    }
    bias_filler {
      type: "constant"
      value: 0
    }
  }
}
layer {
  name: "relu6"
  type: "ReLU"
  bottom: "conv6"
  top: "relu6"
}
layer {
  name: "conv7"
  type: "Convolution"
  bottom: "relu6"
  top: "conv7"
  param {
    lr_mult: 0.1
  }
  param {
    lr_mult: 0.1
  }
  convolution_param {
    num_output: 1
    pad: 1
    kernel_size: 3
    stride: 1
    weight_filler {
      type: "gaussian"
      std: 0.1
    }
    bias_filler {
      type: "constant"
      value: 0
    }
  }
}
layer {
  name: "trainLoss"
  type: "EuclideanLoss"
  bottom: "conv7"
  bottom: "label"
  top: "trainLoss"
}
I1019 00:45:23.415290 127278 layer_factory.hpp:77] Creating layer data
I1019 00:45:23.415324 127278 net.cpp:100] Creating Layer data
I1019 00:45:23.415339 127278 net.cpp:408] data -> data
I1019 00:45:23.415391 127278 net.cpp:408] data -> label
I1019 00:45:23.415421 127278 hdf5_data_layer.cpp:79] Loading list of HDF5 filenames from: trainCNN_cr50.txt
I1019 00:45:23.437367 127278 hdf5_data_layer.cpp:93] Number of HDF5 files: 1
I1019 00:45:23.465420 127278 hdf5.cpp:32] Datatype class: H5T_FLOAT
I1019 00:45:53.860277 127278 net.cpp:150] Setting up data
I1019 00:45:53.860417 127278 net.cpp:157] Top shape: 100 1 1 20 (2000)
I1019 00:45:53.860440 127278 net.cpp:157] Top shape: 100 1 32 32 (102400)
I1019 00:45:53.860455 127278 net.cpp:165] Memory required for data: 417600
I1019 00:45:53.860479 127278 layer_factory.hpp:77] Creating layer fc1
I1019 00:45:53.860530 127278 net.cpp:100] Creating Layer fc1
I1019 00:45:53.860553 127278 net.cpp:434] fc1 <- data
I1019 00:45:53.860584 127278 net.cpp:408] fc1 -> fc1
I1019 00:45:53.864434 127278 net.cpp:150] Setting up fc1
I1019 00:45:53.864473 127278 net.cpp:157] Top shape: 100 1024 (102400)
I1019 00:45:53.864488 127278 net.cpp:165] Memory required for data: 827200
I1019 00:45:53.864524 127278 layer_factory.hpp:77] Creating layer reshape
I1019 00:45:53.864552 127278 net.cpp:100] Creating Layer reshape
I1019 00:45:53.864567 127278 net.cpp:434] reshape <- fc1
I1019 00:45:53.864584 127278 net.cpp:408] reshape -> reshape
I1019 00:45:53.864696 127278 net.cpp:150] Setting up reshape
I1019 00:45:53.864719 127278 net.cpp:157] Top shape: 100 1 32 32 (102400)
I1019 00:45:53.864733 127278 net.cpp:165] Memory required for data: 1236800
I1019 00:45:53.864747 127278 layer_factory.hpp:77] Creating layer conv1
I1019 00:45:53.864779 127278 net.cpp:100] Creating Layer conv1
I1019 00:45:53.864794 127278 net.cpp:434] conv1 <- reshape
I1019 00:45:53.864814 127278 net.cpp:408] conv1 -> conv1
I1019 00:45:53.865173 127278 net.cpp:150] Setting up conv1
I1019 00:45:53.865201 127278 net.cpp:157] Top shape: 100 128 32 32 (13107200)
I1019 00:45:53.865216 127278 net.cpp:165] Memory required for data: 53665600
I1019 00:45:53.865238 127278 layer_factory.hpp:77] Creating layer relu1
I1019 00:45:53.865262 127278 net.cpp:100] Creating Layer relu1
I1019 00:45:53.865278 127278 net.cpp:434] relu1 <- conv1
I1019 00:45:53.865294 127278 net.cpp:408] relu1 -> relu1
I1019 00:45:53.865344 127278 net.cpp:150] Setting up relu1
I1019 00:45:53.865370 127278 net.cpp:157] Top shape: 100 128 32 32 (13107200)
I1019 00:45:53.865382 127278 net.cpp:165] Memory required for data: 106094400
I1019 00:45:53.865397 127278 layer_factory.hpp:77] Creating layer conv2
I1019 00:45:53.865419 127278 net.cpp:100] Creating Layer conv2
I1019 00:45:53.865433 127278 net.cpp:434] conv2 <- relu1
I1019 00:45:53.865452 127278 net.cpp:408] conv2 -> conv2
I1019 00:45:53.867115 127278 net.cpp:150] Setting up conv2
I1019 00:45:53.867152 127278 net.cpp:157] Top shape: 100 64 32 32 (6553600)
I1019 00:45:53.867167 127278 net.cpp:165] Memory required for data: 132308800
I1019 00:45:53.867192 127278 layer_factory.hpp:77] Creating layer relu2
I1019 00:45:53.867209 127278 net.cpp:100] Creating Layer relu2
I1019 00:45:53.867224 127278 net.cpp:434] relu2 <- conv2
I1019 00:45:53.867243 127278 net.cpp:408] relu2 -> relu2
I1019 00:45:53.867288 127278 net.cpp:150] Setting up relu2
I1019 00:45:53.867324 127278 net.cpp:157] Top shape: 100 64 32 32 (6553600)
I1019 00:45:53.867337 127278 net.cpp:165] Memory required for data: 158523200
I1019 00:45:53.867350 127278 layer_factory.hpp:77] Creating layer conv3
I1019 00:45:53.867375 127278 net.cpp:100] Creating Layer conv3
I1019 00:45:53.867391 127278 net.cpp:434] conv3 <- relu2
I1019 00:45:53.867409 127278 net.cpp:408] conv3 -> conv3
I1019 00:45:53.868805 127278 net.cpp:150] Setting up conv3
I1019 00:45:53.868832 127278 net.cpp:157] Top shape: 100 32 32 32 (3276800)
I1019 00:45:53.868845 127278 net.cpp:165] Memory required for data: 171630400
I1019 00:45:53.868865 127278 layer_factory.hpp:77] Creating layer relu3
I1019 00:45:53.868886 127278 net.cpp:100] Creating Layer relu3
I1019 00:45:53.868901 127278 net.cpp:434] relu3 <- conv3
I1019 00:45:53.868917 127278 net.cpp:408] relu3 -> relu3
I1019 00:45:53.868963 127278 net.cpp:150] Setting up relu3
I1019 00:45:53.868985 127278 net.cpp:157] Top shape: 100 32 32 32 (3276800)
I1019 00:45:53.868999 127278 net.cpp:165] Memory required for data: 184737600
I1019 00:45:53.869011 127278 layer_factory.hpp:77] Creating layer conv4
I1019 00:45:53.869034 127278 net.cpp:100] Creating Layer conv4
I1019 00:45:53.869047 127278 net.cpp:434] conv4 <- relu3
I1019 00:45:53.869091 127278 net.cpp:408] conv4 -> conv4
I1019 00:45:53.869985 127278 net.cpp:150] Setting up conv4
I1019 00:45:53.870014 127278 net.cpp:157] Top shape: 100 32 32 32 (3276800)
I1019 00:45:53.870028 127278 net.cpp:165] Memory required for data: 197844800
I1019 00:45:53.870050 127278 layer_factory.hpp:77] Creating layer relu4
I1019 00:45:53.870069 127278 net.cpp:100] Creating Layer relu4
I1019 00:45:53.870085 127278 net.cpp:434] relu4 <- conv4
I1019 00:45:53.870100 127278 net.cpp:408] relu4 -> relu4
I1019 00:45:53.870146 127278 net.cpp:150] Setting up relu4
I1019 00:45:53.870167 127278 net.cpp:157] Top shape: 100 32 32 32 (3276800)
I1019 00:45:53.870180 127278 net.cpp:165] Memory required for data: 210952000
I1019 00:45:53.870193 127278 layer_factory.hpp:77] Creating layer conv5
I1019 00:45:53.870214 127278 net.cpp:100] Creating Layer conv5
I1019 00:45:53.870229 127278 net.cpp:434] conv5 <- relu4
I1019 00:45:53.870247 127278 net.cpp:408] conv5 -> conv5
I1019 00:45:53.870880 127278 net.cpp:150] Setting up conv5
I1019 00:45:53.870905 127278 net.cpp:157] Top shape: 100 16 32 32 (1638400)
I1019 00:45:53.870918 127278 net.cpp:165] Memory required for data: 217505600
I1019 00:45:53.870939 127278 layer_factory.hpp:77] Creating layer relu5
I1019 00:45:53.870955 127278 net.cpp:100] Creating Layer relu5
I1019 00:45:53.870968 127278 net.cpp:434] relu5 <- conv5
I1019 00:45:53.870985 127278 net.cpp:408] relu5 -> relu5
I1019 00:45:53.871028 127278 net.cpp:150] Setting up relu5
I1019 00:45:53.871045 127278 net.cpp:157] Top shape: 100 16 32 32 (1638400)
I1019 00:45:53.871058 127278 net.cpp:165] Memory required for data: 224059200
I1019 00:45:53.871070 127278 layer_factory.hpp:77] Creating layer conv6
I1019 00:45:53.871093 127278 net.cpp:100] Creating Layer conv6
I1019 00:45:53.871107 127278 net.cpp:434] conv6 <- relu5
I1019 00:45:53.871124 127278 net.cpp:408] conv6 -> conv6
I1019 00:45:53.872423 127278 net.cpp:150] Setting up conv6
I1019 00:45:53.872459 127278 net.cpp:157] Top shape: 100 16 32 32 (1638400)
I1019 00:45:53.872474 127278 net.cpp:165] Memory required for data: 230612800
I1019 00:45:53.872493 127278 layer_factory.hpp:77] Creating layer relu6
I1019 00:45:53.872511 127278 net.cpp:100] Creating Layer relu6
I1019 00:45:53.872525 127278 net.cpp:434] relu6 <- conv6
I1019 00:45:53.872544 127278 net.cpp:408] relu6 -> relu6
I1019 00:45:53.872588 127278 net.cpp:150] Setting up relu6
I1019 00:45:53.872611 127278 net.cpp:157] Top shape: 100 16 32 32 (1638400)
I1019 00:45:53.872623 127278 net.cpp:165] Memory required for data: 237166400
I1019 00:45:53.872637 127278 layer_factory.hpp:77] Creating layer conv7
I1019 00:45:53.872663 127278 net.cpp:100] Creating Layer conv7
I1019 00:45:53.872678 127278 net.cpp:434] conv7 <- relu6
I1019 00:45:53.872696 127278 net.cpp:408] conv7 -> conv7
I1019 00:45:53.873065 127278 net.cpp:150] Setting up conv7
I1019 00:45:53.873091 127278 net.cpp:157] Top shape: 100 1 32 32 (102400)
I1019 00:45:53.873106 127278 net.cpp:165] Memory required for data: 237576000
I1019 00:45:53.873123 127278 layer_factory.hpp:77] Creating layer trainLoss
I1019 00:45:53.873147 127278 net.cpp:100] Creating Layer trainLoss
I1019 00:45:53.873162 127278 net.cpp:434] trainLoss <- conv7
I1019 00:45:53.873178 127278 net.cpp:434] trainLoss <- label
I1019 00:45:53.873198 127278 net.cpp:408] trainLoss -> trainLoss
…
I1019 00:45:53.874641 127278 solver.cpp:181] Creating test net (#0) specified by net file: videoNetCNN_cr50_model_10172016.prototxt
I1019 00:45:53.874724 127278 net.cpp:322] The NetState phase (1) differed from the phase (0) specified by a rule in layer data
I1019 00:45:53.875028 127278 net.cpp:58] Initializing net from parameters:
name: "videoNetCNN_cr50_model_10172016.prototxt"
state {
  phase: TEST
}
layer {
  name: "data"
  type: "HDF5Data"
  top: "data"
  top: "label"
  include {
    phase: TEST
  }
  hdf5_data_param {
    source: "valCNN_cr50.txt"
    batch_size: 100
  }
}
layer {
  name: "fc1"
  type: "InnerProduct"
  bottom: "data"
  top: "fc1"
  param {
    lr_mult: 1
    decay_mult: 1
  }
  param {
    lr_mult: 2
    decay_mult: 0
  }
  inner_product_param {
    num_output: 1024
    weight_filler {
      type: "gaussian"
      std: 0.01
    }
    bias_filler {
      type: "constant"
      value: 0
    }
  }
}
layer {
  name: "reshape"
  type: "Reshape"
  bottom: "fc1"
  top: "reshape"
  reshape_param {
    shape {
      dim: 0
      dim: 1
      dim: 32
      dim: 32
    }
  }
}
layer {
  name: "conv1"
  type: "Convolution"
  bottom: "reshape"
  top: "conv1"
  param {
    lr_mult: 1
  }
  param {
    lr_mult: 0.1
  }
  convolution_param {
    num_output: 128
    pad: 0
    kernel_size: 1
    stride: 1
    weight_filler {
      type: "gaussian"
      std: 0.1
    }
    bias_filler {
      type: "constant"
      value: 0
    }
  }
}
layer {
  name: "relu1"
  type: "ReLU"
  bottom: "conv1"
  top: "relu1"
}
layer {
  name: "conv2"
  type: "Convolution"
  bottom: "relu1"
  top: "conv2"
  param {
    lr_mult: 1
  }
  param {
    lr_mult: 0.1
  }
  convolution_param {
    num_output: 64
    pad: 0
    kernel_size: 1
    stride: 1
    weight_filler {
      type: "gaussian"
      std: 0.1
    }
    bias_filler {
      type: "constant"
      value: 0
    }
  }
}
layer {
  name: "relu2"
  type: "ReLU"
  bottom: "conv2"
  top: "relu2"
}
layer {
  name: "conv3"
  type: "Convolution"
  bottom: "relu2"
  top: "conv3"
  param {
    lr_mult: 0.1
  }
  param {
    lr_mult: 0.1
  }
  convolution_param {
    num_output: 32
    pad: 1
    kernel_size: 3
    stride: 1
    weight_filler {
      type: "gaussian"
      std: 0.1
    }
    bias_filler {
      type: "constant"
      value: 0
    }
  }
}
layer {
  name: "relu3"
  type: "ReLU"
  bottom: "conv3"
  top: "relu3"
}
layer {
  name: "conv4"
  type: "Convolution"
  bottom: "relu3"
  top: "conv4"
  param {
    lr_mult: 1
  }
  param {
    lr_mult: 0.1
  }
  convolution_param {
    num_output: 32
    pad: 1
    kernel_size: 3
    stride: 1
    weight_filler {
      type: "gaussian"
      std: 0.1
    }
    bias_filler {
      type: "constant"
      value: 0
    }
  }
}
layer {
  name: "relu4"
  type: "ReLU"
  bottom: "conv4"
  top: "relu4"
}
layer {
  name: "conv5"
  type: "Convolution"
  bottom: "relu4"
  top: "conv5"
  param {
    lr_mult: 1
  }
  param {
    lr_mult: 0.1
  }
  convolution_param {
    num_output: 16
    pad: 1
    kernel_size: 3
    stride: 1
    weight_filler {
      type: "gaussian"
      std: 0.1
    }
    bias_filler {
      type: "constant"
      value: 0
    }
  }
}
layer {
  name: "relu5"
  type: "ReLU"
  bottom: "conv5"
  top: "relu5"
}
layer {
  name: "conv6"
  type: "Convolution"
  bottom: "relu5"
  top: "conv6"
  param {
    lr_mult: 0.1
  }
  param {
    lr_mult: 0.1
  }
  convolution_param {
    num_output: 16
    pad: 1
    kernel_size: 3
    stride: 1
    weight_filler {
      type: "gaussian"
      std: 0.1
    }
    bias_filler {
      type: "constant"
      value: 0
    }
  }
}
layer {
  name: "relu6"
  type: "ReLU"
  bottom: "conv6"
  top: "relu6"
}
layer {
  name: "conv7"
  type: "Convolution"
  bottom: "relu6"
  top: "conv7"
  param {
    lr_mult: 0.1
  }
  param {
    lr_mult: 0.1
  }
  convolution_param {
    num_output: 1
    pad: 1
    kernel_size: 3
    stride: 1
    weight_filler {
      type: "gaussian"
      std: 0.1
    }
    bias_filler {
      type: "constant"
      value: 0
    }
  }
}
layer {
  name: "trainLoss"
  type: "EuclideanLoss"
  bottom: "conv7"
  bottom: "label"
  top: "trainLoss"
}
layer {
  name: "testLoss"
  type: "EuclideanLoss"
  bottom: "conv7"
  bottom: "label"
  top: "testLoss"
  include {
    phase: TEST
  }
}
I1019 00:45:53.876657 127278 layer_factory.hpp:77] Creating layer data
I1019 00:45:53.876685 127278 net.cpp:100] Creating Layer data
I1019 00:45:53.876700 127278 net.cpp:408] data -> data
I1019 00:45:53.876723 127278 net.cpp:408] data -> label
I1019 00:45:53.876741 127278 hdf5_data_layer.cpp:79] Loading list of HDF5 filenames from: valCNN_cr50.txt
I1019 00:45:53.891767 127278 hdf5_data_layer.cpp:93] Number of HDF5 files: 1
I1019 00:46:01.757437 127278 net.cpp:150] Setting up data
I1019 00:46:01.757519 127278 net.cpp:157] Top shape: 100 1 1 20 (2000)
I1019 00:46:01.757541 127278 net.cpp:157] Top shape: 100 1 32 32 (102400)
I1019 00:46:01.757556 127278 net.cpp:165] Memory required for data: 417600
I1019 00:46:01.757578 127278 layer_factory.hpp:77] Creating layer label_data_1_split
I1019 00:46:01.757628 127278 net.cpp:100] Creating Layer label_data_1_split
I1019 00:46:01.757648 127278 net.cpp:434] label_data_1_split <- label
I1019 00:46:01.757673 127278 net.cpp:408] label_data_1_split -> label_data_1_split_0
I1019 00:46:01.757701 127278 net.cpp:408] label_data_1_split -> label_data_1_split_1
I1019 00:46:01.757781 127278 net.cpp:150] Setting up label_data_1_split
I1019 00:46:01.757807 127278 net.cpp:157] Top shape: 100 1 32 32 (102400)
I1019 00:46:01.757827 127278 net.cpp:157] Top shape: 100 1 32 32 (102400)
I1019 00:46:01.757843 127278 net.cpp:165] Memory required for data: 1236800
I1019 00:46:01.757858 127278 layer_factory.hpp:77] Creating layer fc1
I1019 00:46:01.757899 127278 net.cpp:100] Creating Layer fc1
I1019 00:46:01.757930 127278 net.cpp:434] fc1 <- data
I1019 00:46:01.757952 127278 net.cpp:408] fc1 -> fc1
I1019 00:46:01.759555 127278 net.cpp:150] Setting up fc1
I1019 00:46:01.759587 127278 net.cpp:157] Top shape: 100 1024 (102400)
I1019 00:46:01.759603 127278 net.cpp:165] Memory required for data: 1646400
I1019 00:46:01.759631 127278 layer_factory.hpp:77] Creating layer reshape
I1019 00:46:01.759661 127278 net.cpp:100] Creating Layer reshape
I1019 00:46:01.759677 127278 net.cpp:434] reshape <- fc1
I1019 00:46:01.759698 127278 net.cpp:408] reshape -> reshape
I1019 00:46:01.759774 127278 net.cpp:150] Setting up reshape
I1019 00:46:01.759799 127278 net.cpp:157] Top shape: 100 1 32 32 (102400)
I1019 00:46:01.759814 127278 net.cpp:165] Memory required for data: 2056000
I1019 00:46:01.759829 127278 layer_factory.hpp:77] Creating layer conv1
I1019 00:46:01.759868 127278 net.cpp:100] Creating Layer conv1
I1019 00:46:01.759886 127278 net.cpp:434] conv1 <- reshape
I1019 00:46:01.759907 127278 net.cpp:408] conv1 -> conv1
I1019 00:46:01.760319 127278 net.cpp:150] Setting up conv1
I1019 00:46:01.760349 127278 net.cpp:157] Top shape: 100 128 32 32 (13107200)
I1019 00:46:01.760363 127278 net.cpp:165] Memory required for data: 54484800
I1019 00:46:01.760388 127278 layer_factory.hpp:77] Creating layer relu1
I1019 00:46:01.760414 127278 net.cpp:100] Creating Layer relu1
I1019 00:46:01.760473 127278 net.cpp:434] relu1 <- conv1
I1019 00:46:01.760495 127278 net.cpp:408] relu1 -> relu1
I1019 00:46:01.760548 127278 net.cpp:150] Setting up relu1
I1019 00:46:01.760572 127278 net.cpp:157] Top shape: 100 128 32 32 (13107200)
I1019 00:46:01.760587 127278 net.cpp:165] Memory required for data: 106913600
I1019 00:46:01.760602 127278 layer_factory.hpp:77] Creating layer conv2
I1019 00:46:01.760633 127278 net.cpp:100] Creating Layer conv2
I1019 00:46:01.760650 127278 net.cpp:434] conv2 <- relu1
I1019 00:46:01.760670 127278 net.cpp:408] conv2 -> conv2
I1019 00:46:01.761623 127278 net.cpp:150] Setting up conv2
I1019 00:46:01.761653 127278 net.cpp:157] Top shape: 100 64 32 32 (6553600)
I1019 00:46:01.761669 127278 net.cpp:165] Memory required for data: 133128000
I1019 00:46:01.761694 127278 layer_factory.hpp:77] Creating layer relu2
I1019 00:46:01.761716 127278 net.cpp:100] Creating Layer relu2
I1019 00:46:01.761734 127278 net.cpp:434] relu2 <- conv2
I1019 00:46:01.761751 127278 net.cpp:408] relu2 -> relu2
I1019 00:46:01.761802 127278 net.cpp:150] Setting up relu2
I1019 00:46:01.761826 127278 net.cpp:157] Top shape: 100 64 32 32 (6553600)
I1019 00:46:01.761842 127278 net.cpp:165] Memory required for data: 159342400
I1019 00:46:01.761857 127278 layer_factory.hpp:77] Creating layer conv3
I1019 00:46:01.761888 127278 net.cpp:100] Creating Layer conv3
I1019 00:46:01.761917 127278 net.cpp:434] conv3 <- relu2
I1019 00:46:01.761940 127278 net.cpp:408] conv3 -> conv3
I1019 00:46:01.763561 127278 net.cpp:150] Setting up conv3
I1019 00:46:01.763591 127278 net.cpp:157] Top shape: 100 32 32 32 (3276800)
I1019 00:46:01.763605 127278 net.cpp:165] Memory required for data: 172449600
I1019 00:46:01.763627 127278 layer_factory.hpp:77] Creating layer relu3
I1019 00:46:01.763648 127278 net.cpp:100] Creating Layer relu3
I1019 00:46:01.763665 127278 net.cpp:434] relu3 <- conv3
I1019 00:46:01.763684 127278 net.cpp:408] relu3 -> relu3
I1019 00:46:01.763734 127278 net.cpp:150] Setting up relu3
I1019 00:46:01.763757 127278 net.cpp:157] Top shape: 100 32 32 32 (3276800)
I1019 00:46:01.763772 127278 net.cpp:165] Memory required for data: 185556800
I1019 00:46:01.763787 127278 layer_factory.hpp:77] Creating layer conv4
I1019 00:46:01.763818 127278 net.cpp:100] Creating Layer conv4
I1019 00:46:01.763833 127278 net.cpp:434] conv4 <- relu3
I1019 00:46:01.763852 127278 net.cpp:408] conv4 -> conv4
I1019 00:46:01.764855 127278 net.cpp:150] Setting up conv4
I1019 00:46:01.764884 127278 net.cpp:157] Top shape: 100 32 32 32 (3276800)
I1019 00:46:01.764899 127278 net.cpp:165] Memory required for data: 198664000
I1019 00:46:01.764925 127278 layer_factory.hpp:77] Creating layer relu4
I1019 00:46:01.764947 127278 net.cpp:100] Creating Layer relu4
I1019 00:46:01.764963 127278 net.cpp:434] relu4 <- conv4
I1019 00:46:01.764982 127278 net.cpp:408] relu4 -> relu4
I1019 00:46:01.765031 127278 net.cpp:150] Setting up relu4
I1019 00:46:01.765060 127278 net.cpp:157] Top shape: 100 32 32 32 (3276800)
I1019 00:46:01.765075 127278 net.cpp:165] Memory required for data: 211771200
I1019 00:46:01.765090 127278 layer_factory.hpp:77] Creating layer conv5
I1019 00:46:01.765120 127278 net.cpp:100] Creating Layer conv5
I1019 00:46:01.765136 127278 net.cpp:434] conv5 <- relu4
I1019 00:46:01.765157 127278 net.cpp:408] conv5 -> conv5
I1019 00:46:01.765869 127278 net.cpp:150] Setting up conv5
I1019 00:46:01.765898 127278 net.cpp:157] Top shape: 100 16 32 32 (1638400)
I1019 00:46:01.765924 127278 net.cpp:165] Memory required for data: 218324800
I1019 00:46:01.765945 127278 layer_factory.hpp:77] Creating layer relu5
I1019 00:46:01.765965 127278 net.cpp:100] Creating Layer relu5
I1019 00:46:01.765981 127278 net.cpp:434] relu5 <- conv5
I1019 00:46:01.766000 127278 net.cpp:408] relu5 -> relu5
I1019 00:46:01.766068 127278 net.cpp:150] Setting up relu5
I1019 00:46:01.766090 127278 net.cpp:157] Top shape: 100 16 32 32 (1638400)
I1019 00:46:01.766105 127278 net.cpp:165] Memory required for data: 224878400
I1019 00:46:01.766119 127278 layer_factory.hpp:77] Creating layer conv6
I1019 00:46:01.766176 127278 net.cpp:100] Creating Layer conv6
I1019 00:46:01.766193 127278 net.cpp:434] conv6 <- relu5
I1019 00:46:01.766212 127278 net.cpp:408] conv6 -> conv6
I1019 00:46:01.766733 127278 net.cpp:150] Setting up conv6
I1019 00:46:01.766762 127278 net.cpp:157] Top shape: 100 16 32 32 (1638400)
I1019 00:46:01.766777 127278 net.cpp:165] Memory required for data: 231432000
I1019 00:46:01.766795 127278 layer_factory.hpp:77] Creating layer relu6
I1019 00:46:01.766818 127278 net.cpp:100] Creating Layer relu6
I1019 00:46:01.766832 127278 net.cpp:434] relu6 <- conv6
I1019 00:46:01.766849 127278 net.cpp:408] relu6 -> relu6
I1019 00:46:01.766896 127278 net.cpp:150] Setting up relu6
I1019 00:46:01.766918 127278 net.cpp:157] Top shape: 100 16 32 32 (1638400)
I1019 00:46:01.766932 127278 net.cpp:165] Memory required for data: 237985600
I1019 00:46:01.766947 127278 layer_factory.hpp:77] Creating layer conv7
I1019 00:46:01.766975 127278 net.cpp:100] Creating Layer conv7
I1019 00:46:01.766993 127278 net.cpp:434] conv7 <- relu6
I1019 00:46:01.767012 127278 net.cpp:408] conv7 -> conv7
I1019 00:46:01.767395 127278 net.cpp:150] Setting up conv7
I1019 00:46:01.767419 127278 net.cpp:157] Top shape: 100 1 32 32 (102400)
I1019 00:46:01.767434 127278 net.cpp:165] Memory required for data: 238395200
I1019 00:46:01.767454 127278 layer_factory.hpp:77] Creating layer conv7_conv7_0_split
I1019 00:46:01.767477 127278 net.cpp:100] Creating Layer conv7_conv7_0_split
I1019 00:46:01.767493 127278 net.cpp:434] conv7_conv7_0_split <- conv7
I1019 00:46:01.767509 127278 net.cpp:408] conv7_conv7_0_split -> conv7_conv7_0_split_0
I1019 00:46:01.767529 127278 net.cpp:408] conv7_conv7_0_split -> conv7_conv7_0_split_1
I1019 00:46:01.767594 127278 net.cpp:150] Setting up conv7_conv7_0_split
I1019 00:46:01.767616 127278 net.cpp:157] Top shape: 100 1 32 32 (102400)
I1019 00:46:01.767632 127278 net.cpp:157] Top shape: 100 1 32 32 (102400)
I1019 00:46:01.767647 127278 net.cpp:165] Memory required for data: 239214400
I1019 00:46:01.767660 127278 layer_factory.hpp:77] Creating layer trainLoss
I1019 00:46:01.767683 127278 net.cpp:100] Creating Layer trainLoss
I1019 00:46:01.767698 127278 net.cpp:434] trainLoss <- conv7_conv7_0_split_0
I1019 00:46:01.767714 127278 net.cpp:434] trainLoss <- label_data_1_split_0
I1019 00:46:01.767732 127278 net.cpp:408] trainLoss -> trainLoss
…
