.txt"
    batch_size: 100
  }
}
layer {
  name: "fc1"
  type: "InnerProduct"
  bottom: "data"
  top: "fc1"
  param {
    lr_mult: 1
    decay_mult: 1
  }
  param {
    lr_mult: 2
    decay_mult: 0
  }
  inner_product_param {
    num_output: 1024
    weight_filler {
      type: "gaussian"
      std: 0.01
    }
    bias_filler {
      type: "constant"
      value: 0
    }
  }
}
layer {
  name: "reshape"
  type: "Reshape"
  bottom: "fc1"
  top: "reshape"
  reshape_param {
    shape {
      dim: 0
      dim: 1
      dim: 32
      dim: 32
    }
  }
}
layer {
  name: "conv1"
  type: "Convolution"
  bottom: "reshape"
  top: "conv1"
  param {
    lr_mult: 1
  }
  param {
    lr_mult: 0.1
  }
  convolution_param {
    num_output: 128
    pad: 0
    kernel_size: 1
    stride: 1
    weight_filler {
      type: "gaussian"
      std: 0.1
    }
    bias_filler {
      type: "constant"
      value: 0
    }
  }
}
layer {
  name: "relu1"
  type: "ReLU"
  bottom: "conv1"
  top: "relu1"
}
layer {
  name: "conv2"
  type: "Convolution"
  bottom: "relu1"
  top: "conv2"
  param {
    lr_mult: 1
  }
  param {
    lr_mult: 0.1
  }
  convolution_param {
    num_output: 64
    pad: 0
    kernel_size: 1
    stride: 1
    weight_filler {
      type: "gaussian"
      std: 0.1
    }
    bias_filler {
      type: "constant"
      value: 0
    }
  }
}
layer {
  name: "relu2"
  type: "ReLU"
  bottom: "conv2"
  top: "relu2"
}
layer {
  name: "conv3"
  type: "Convolution"
  bottom: "relu2"
  top: "conv3"
  param {
    lr_mult: 0.1
  }
  param {
    lr_mult: 0.1
  }
  convolution_param {
    num_output: 32
    pad: 1
    kernel_size: 3
    stride: 1
    weight_filler {
      type: "gaussian"
      std: 0.1
    }
    bias_filler {
      type: "constant"
      value: 0
    }
  }
}
layer {
  name: "relu3"
  type: "ReLU"
  bottom: "conv3"
  top: "relu3"
}
layer {
  name: "conv4"
  type: "Convolution"
  bottom: "relu3"
  top: "conv4"
  param {
    lr_mult: 1
  }
  param {
    lr_mult: 0.1
  }
  convolution_param {
    num_output: 32
    pad: 1
    kernel_size: 3
    stride: 1
    weight_filler {
      type: "gaussian"
      std: 0.1
    }
    bias_filler {
      type: "constant"
      value: 0
    }
  }
}
layer {
  name: "relu4"
  type: "ReLU"
  bottom: "conv4"
  top: "relu4"
}
layer {
  name: "conv5"
  type: "Convolution"
  bottom: "relu4"
  top: "conv5"
  param {
    lr_mult: 1
  }
  param {
    lr_mult: 0.1
  }
  convolution_param {
    num_output: 16
    pad: 1
    kernel_size: 3
    stride: 1
    weight_filler {
      type: "gaussian"
      std: 0.1
    }
    bias_filler {
      type: "constant"
      value: 0
    }
  }
}
layer {
  name: "relu5"
  type: "ReLU"
  bottom: "conv5"
  top: "relu5"
}
layer {
  name: "conv6"
  type: "Convolution"
  bottom: "relu5"
  top: "conv6"
  param {
    lr_mult: 0.1
  }
  param {
    lr_mult: 0.1
  }
  convolution_param {
    num_output: 16
    pad: 1
    kernel_size: 3
    stride: 1
    weight_filler {
      type: "gaussian"
      std: 0.1
    }
    bias_filler {
      type: "constant"
      value: 0
    }
  }
}
layer {
  name: "relu6"
  type: "ReLU"
  bottom: "conv6"
  top: "relu6"
}
layer {
  name: "conv7"
  type: "Convolution"
  bottom: "relu6"
  top: "conv7"
  param {
    lr_mult: 0.1
  }
  param {
    lr_mult: 0.1
  }
  convolution_param {
    num_output: 1
    pad: 1
    kernel_size: 3
    stride: 1
    weight_filler {
      type: "gaussian"
      std: 0.1
    }
    bias_filler {
      type: "constant"
      value: 0
    }
  }
}
layer {
  name: "trainLoss"
  type: "EuclideanLoss"
  bottom: "conv7"
  bottom: "label"
  top: "trainLoss"
  include {
    phase: TRAIN
  }
}
I1102 22:41:08.061995 26094 layer_factory.hpp:77] Creating layer data
I1102 22:41:08.062026 26094 net.cpp:100] Creating Layer data
I1102 22:41:08.062037 26094 net.cpp:408] data -> data
I1102 22:41:08.062085 26094 net.cpp:408] data -> label
I1102 22:41:08.062111 26094 hdf5_data_layer.cpp:79] Loading list of HDF5 filenames from: trainCNN_cr25.txt
I1102 22:41:08.062150 26094 hdf5_data_layer.cpp:93] Number of HDF5 files: 1
I1102 22:41:08.133019 26094 hdf5.cpp:32] Datatype class: H5T_FLOAT
I1102 22:42:04.981642 26094 net.cpp:150] Setting up data
I1102 22:42:04.981760 26094 net.cpp:157] Top shape: 100 1 1 40 (4000)
I1102 22:42:04.981782 26094 net.cpp:157] Top shape: 100 1 32 32 (102400)
I1102 22:42:04.981796 26094 net.cpp:165] Memory required for data: 425600
I1102 22:42:04.981817 26094 layer_factory.hpp:77] Creating layer fc1
I1102 22:42:04.981850 26094 net.cpp:100] Creating Layer fc1
I1102 22:42:04.981870 26094 net.cpp:434] fc1 <- data
I1102 22:42:04.981899 26094 net.cpp:408] fc1 -> fc1
I1102 22:42:04.986940 26094 net.cpp:150] Setting up fc1
I1102 22:42:04.986987 26094 net.cpp:157] Top shape: 100 1024 (102400)
I1102 22:42:04.987004 26094 net.cpp:165] Memory required for data: 835200
I1102 22:42:04.987035 26094 layer_factory.hpp:77] Creating layer reshape
I1102 22:42:04.987061 26094 net.cpp:100] Creating Layer reshape
I1102 22:42:04.987095 26094 net.cpp:434] reshape <- fc1
I1102 22:42:04.987123 26094 net.cpp:408] reshape -> reshape
I1102 22:42:04.987188 26094 net.cpp:150] Setting up reshape
I1102 22:42:04.987226 26094 net.cpp:157] Top shape: 100 1 32 32 (102400)
I1102 22:42:04.987239 26094 net.cpp:165] Memory required for data: 1244800
I1102 22:42:04.987252 26094 layer_factory.hpp:77] Creating layer conv1
I1102 22:42:04.987282 26094 net.cpp:100] Creating Layer conv1
I1102 22:42:04.987298 26094 net.cpp:434] conv1 <- reshape
I1102 22:42:04.987327 26094 net.cpp:408] conv1 -> conv1
I1102 22:42:04.987678 26094 net.cpp:150] Setting up conv1
I1102 22:42:04.987704 26094 net.cpp:157] Top shape: 100 128 32 32 (13107200)
I1102 22:42:04.987716 26094 net.cpp:165] Memory required for data: 53673600
I1102 22:42:04.987737 26094 layer_factory.hpp:77] Creating layer relu1
I1102 22:42:04.987756 26094 net.cpp:100] Creating Layer relu1
I1102 22:42:04.987769 26094 net.cpp:434] relu1 <- conv1
I1102 22:42:04.987785 26094 net.cpp:408] relu1 -> relu1
I1102 22:42:04.987833 26094 net.cpp:150] Setting up relu1
I1102 22:42:04.987854 26094 net.cpp:157] Top shape: 100 128 32 32 (13107200)
I1102 22:42:04.987865 26094 net.cpp:165] Memory required for data: 106102400
I1102 22:42:04.987879 26094 layer_factory.hpp:77] Creating layer conv2
I1102 22:42:04.987898 26094 net.cpp:100] Creating Layer conv2
I1102 22:42:04.987911 26094 net.cpp:434] conv2 <- relu1
I1102 22:42:04.987927 26094 net.cpp:408] conv2 -> conv2
I1102 22:42:04.989547 26094 net.cpp:150] Setting up conv2
I1102 22:42:04.989583 26094 net.cpp:157] Top shape: 100 64 32 32 (6553600)
I1102 22:42:04.989596 26094 net.cpp:165] Memory required for data: 132316800
I1102 22:42:04.989619 26094 layer_factory.hpp:77] Creating layer relu2
I1102 22:42:04.989639 26094 net.cpp:100] Creating Layer relu2
I1102 22:42:04.989653 26094 net.cpp:434] relu2 <- conv2
I1102 22:42:04.989670 26094 net.cpp:408] relu2 -> relu2
I1102 22:42:04.989722 26094 net.cpp:150] Setting up relu2
I1102 22:42:04.989742 26094 net.cpp:157] Top shape: 100 64 32 32 (6553600)
I1102 22:42:04.989754 26094 net.cpp:165] Memory required for data: 158531200
I1102 22:42:04.989768 26094 layer_factory.hpp:77] Creating layer conv3
I1102 22:42:04.989789 26094 net.cpp:100] Creating Layer conv3
I1102 22:42:04.989804 26094 net.cpp:434] conv3 <- relu2
I1102 22:42:04.989820 26094 net.cpp:408] conv3 -> conv3
I1102 22:42:04.991235 26094 net.cpp:150] Setting up conv3
I1102 22:42:04.991261 26094 net.cpp:157] Top shape: 100 32 32 32 (3276800)
I1102 22:42:04.991274 26094 net.cpp:165] Memory required for data: 171638400
I1102 22:42:04.991292 26094 layer_factory.hpp:77] Creating layer relu3
I1102 22:42:04.991310 26094 net.cpp:100] Creating Layer relu3
I1102 22:42:04.991324 26094 net.cpp:434] relu3 <- conv3
I1102 22:42:04.991340 26094 net.cpp:408] relu3 -> relu3
I1102 22:42:04.991381 26094 net.cpp:150] Setting up relu3
I1102 22:42:04.991400 26094 net.cpp:157] Top shape: 100 32 32 32 (3276800)
I1102 22:42:04.991411 26094 net.cpp:165] Memory required for data: 184745600
I1102 22:42:04.991425 26094 layer_factory.hpp:77] Creating layer conv4
I1102 22:42:04.991446 26094 net.cpp:100] Creating Layer conv4
I1102 22:42:04.991459 26094 net.cpp:434] conv4 <- relu3
I1102 22:42:04.991475 26094 net.cpp:408] conv4 -> conv4
I1102 22:42:04.992353 26094 net.cpp:150] Setting up conv4
I1102 22:42:04.992401 26094 net.cpp:157] Top shape: 100 32 32 32 (3276800)
I1102 22:42:04.992415 26094 net.cpp:165] Memory required for data: 197852800
I1102 22:42:04.992437 26094 layer_factory.hpp:77] Creating layer relu4
I1102 22:42:04.992454 26094 net.cpp:100] Creating Layer relu4
I1102 22:42:04.992466 26094 net.cpp:434] relu4 <- conv4
I1102 22:42:04.992482 26094 net.cpp:408] relu4 -> relu4
I1102 22:42:04.992527 26094 net.cpp:150] Setting up relu4
I1102 22:42:04.992547 26094 net.cpp:157] Top shape: 100 32 32 32 (3276800)
I1102 22:42:04.992559 26094 net.cpp:165] Memory required for data: 210960000
I1102 22:42:04.992570 26094 layer_factory.hpp:77] Creating layer conv5
I1102 22:42:04.992591 26094 net.cpp:100] Creating Layer conv5
I1102 22:42:04.992604 26094 net.cpp:434] conv5 <- relu4
I1102 22:42:04.992620 26094 net.cpp:408] conv5 -> conv5
I1102 22:42:04.993226 26094 net.cpp:150] Setting up conv5
I1102 22:42:04.993247 26094 net.cpp:157] Top shape: 100 16 32 32 (1638400)
I1102 22:42:04.993259 26094 net.cpp:165] Memory required for data: 217513600
I1102 22:42:04.993275 26094 layer_factory.hpp:77] Creating layer relu5
I1102 22:42:04.993291 26094 net.cpp:100] Creating Layer relu5
I1102 22:42:04.993304 26094 net.cpp:434] relu5 <- conv5
I1102 22:42:04.993319 26094 net.cpp:408] relu5 -> relu5
I1102 22:42:04.993360 26094 net.cpp:150] Setting up relu5
I1102 22:42:04.993376 26094 net.cpp:157] Top shape: 100 16 32 32 (1638400)
I1102 22:42:04.993387 26094 net.cpp:165] Memory required for data: 224067200
I1102 22:42:04.993399 26094 layer_factory.hpp:77] Creating layer conv6
I1102 22:42:04.993419 26094 net.cpp:100] Creating Layer conv6
I1102 22:42:04.993432 26094 net.cpp:434] conv6 <- relu5
I1102 22:42:04.993448 26094 net.cpp:408] conv6 -> conv6
I1102 22:42:04.994736 26094 net.cpp:150] Setting up conv6
I1102 22:42:04.994771 26094 net.cpp:157] Top shape: 100 16 32 32 (1638400)
I1102 22:42:04.994786 26094 net.cpp:165] Memory required for data: 230620800
I1102 22:42:04.994803 26094 layer_factory.hpp:77] Creating layer relu6
I1102 22:42:04.994820 26094 net.cpp:100] Creating Layer relu6
I1102 22:42:04.994834 26094 net.cpp:434] relu6 <- conv6
I1102 22:42:04.994851 26094 net.cpp:408] relu6 -> relu6
I1102 22:42:04.994895 26094 net.cpp:150] Setting up relu6
I1102 22:42:04.994916 26094 net.cpp:157] Top shape: 100 16 32 32 (1638400)
I1102 22:42:04.994930 26094 net.cpp:165] Memory required for data: 237174400
I1102 22:42:04.994941 26094 layer_factory.hpp:77] Creating layer conv7
I1102 22:42:04.994962 26094 net.cpp:100] Creating Layer conv7
I1102 22:42:04.994977 26094 net.cpp:434] conv7 <- relu6
I1102 22:42:04.994994 26094 net.cpp:408] conv7 -> conv7
I1102 22:42:04.995373 26094 net.cpp:150] Setting up conv7
I1102 22:42:04.995399 26094 net.cpp:157] Top shape: 100 1 32 32 (102400)
I1102 22:42:04.995412 26094 net.cpp:165] Memory required for data: 237584000
I1102 22:42:04.995429 26094 layer_factory.hpp:77] Creating layer trainLoss
I1102 22:42:04.995451 26094 net.cpp:100] Creating Layer trainLoss
I1102 22:42:04.995468 26094 net.cpp:434] trainLoss <- conv7
I1102 22:42:04.995483 26094 net.cpp:434] trainLoss <- label
I1102 22:42:04.995501 26094 net.cpp:408] trainLoss -> trainLoss
…
