…
I1019 00:46:10.986775 127337 net.cpp:322] The NetState phase (0) differed from the phase (1) specified by a rule in layer data
I1019 00:46:10.986817 127337 net.cpp:322] The NetState phase (0) differed from the phase (1) specified by a rule in layer testLoss
I1019 00:46:10.986981 127337 net.cpp:58] Initializing net from parameters:
name: "videoNetCNN_cr100_model.prototxt"
state {
  phase: TRAIN
  level: 0
  stage: ""
}
layer {
  name: "data"
  type: "HDF5Data"
  top: "data"
  top: "label"
  include {
    phase: TRAIN
  }
  hdf5_data_param {
    source: "trainCNN_cr100.txt"
    batch_size: 100
  }
}
layer {
  name: "fc1"
  type: "InnerProduct"
  bottom: "data"
  top: "fc1"
  param {
    lr_mult: 1
    decay_mult: 1
  }
  param {
    lr_mult: 2
    decay_mult: 0
  }
  inner_product_param {
    num_output: 1024
    weight_filler {
      type: "gaussian"
      std: 0.01
    }
    bias_filler {
      type: "constant"
      value: 0
    }
  }
}
layer {
  name: "reshape"
  type: "Reshape"
  bottom: "fc1"
  top: "reshape"
  reshape_param {
    shape {
      dim: 0
      dim: 1
      dim: 32
      dim: 32
    }
  }
}
layer {
  name: "conv1"
  type: "Convolution"
  bottom: "reshape"
  top: "conv1"
  param {
    lr_mult: 1
  }
  param {
    lr_mult: 0.1
  }
  convolution_param {
    num_output: 128
    pad: 0
    kernel_size: 1
    stride: 1
    weight_filler {
      type: "gaussian"
      std: 0.1
    }
    bias_filler {
      type: "constant"
      value: 0
    }
  }
}
layer {
  name: "relu1"
  type: "ReLU"
  bottom: "conv1"
  top: "relu1"
}
layer {
  name: "conv2"
  type: "Convolution"
  bottom: "relu1"
  top: "conv2"
  param {
    lr_mult: 1
  }
  param {
    lr_mult: 0.1
  }
  convolution_param {
    num_output: 64
    pad: 0
    kernel_size: 1
    stride: 1
    weight_filler {
      type: "gaussian"
      std: 0.1
    }
    bias_filler {
      type: "constant"
      value: 0
    }
  }
}
layer {
  name: "relu2"
  type: "ReLU"
  bottom: "conv2"
  top: "relu2"
}
layer {
  name: "conv3"
  type: "Convolution"
  bottom: "relu2"
  top: "conv3"
  param {
    lr_mult: 0.1
  }
  param {
    lr_mult: 0.1
  }
  convolution_param {
    num_output: 32
    pad: 1
    kernel_size: 3
    stride: 1
    weight_filler {
      type: "gaussian"
      std: 0.1
    }
    bias_filler {
      type: "constant"
      value: 0
    }
  }
}
layer {
  name: "relu3"
  type: "ReLU"
  bottom: "conv3"
  top: "relu3"
}
layer {
  name: "conv4"
  type: "Convolution"
  bottom: "relu3"
  top: "conv4"
  param {
    lr_mult: 1
  }
  param {
    lr_mult: 0.1
  }
  convolution_param {
    num_output: 32
    pad: 1
    kernel_size: 3
    stride: 1
    weight_filler {
      type: "gaussian"
      std: 0.1
    }
    bias_filler {
      type: "constant"
      value: 0
    }
  }
}
layer {
  name: "relu4"
  type: "ReLU"
  bottom: "conv4"
  top: "relu4"
}
layer {
  name: "conv5"
  type: "Convolution"
  bottom: "relu4"
  top: "conv5"
  param {
    lr_mult: 1
  }
  param {
    lr_mult: 0.1
  }
  convolution_param {
    num_output: 16
    pad: 1
    kernel_size: 3
    stride: 1
    weight_filler {
      type: "gaussian"
      std: 0.1
    }
    bias_filler {
      type: "constant"
      value: 0
    }
  }
}
layer {
  name: "relu5"
  type: "ReLU"
  bottom: "conv5"
  top: "relu5"
}
layer {
  name: "conv6"
  type: "Convolution"
  bottom: "relu5"
  top: "conv6"
  param {
    lr_mult: 0.1
  }
  param {
    lr_mult: 0.1
  }
  convolution_param {
    num_output: 16
    pad: 1
    kernel_size: 3
    stride: 1
    weight_filler {
      type: "gaussian"
      std: 0.1
    }
    bias_filler {
      type: "constant"
      value: 0
    }
  }
}
layer {
  name: "relu6"
  type: "ReLU"
  bottom: "conv6"
  top: "relu6"
}
layer {
  name: "conv7"
  type: "Convolution"
  bottom: "relu6"
  top: "conv7"
  param {
    lr_mult: 0.1
  }
  param {
    lr_mult: 0.1
  }
  convolution_param {
    num_output: 1
    pad: 1
    kernel_size: 3
    stride: 1
    weight_filler {
      type: "gaussian"
      std: 0.1
    }
    bias_filler {
      type: "constant"
      value: 0
    }
  }
}
layer {
  name: "trainLoss"
  type: "EuclideanLoss"
  bottom: "conv7"
  bottom: "label"
  top: "trainLoss"
  include {
    phase: TRAIN
  }
}
I1019 00:46:10.987875 127337 layer_factory.hpp:77] Creating layer data
I1019 00:46:10.987903 127337 net.cpp:100] Creating Layer data
I1019 00:46:10.987915 127337 net.cpp:408] data -> data
I1019 00:46:10.987951 127337 net.cpp:408] data -> label
I1019 00:46:10.987973 127337 hdf5_data_layer.cpp:79] Loading list of HDF5 filenames from: trainCNN_cr100.txt
I1019 00:46:11.052886 127337 hdf5_data_layer.cpp:93] Number of HDF5 files: 1
I1019 00:46:11.078845 127337 hdf5.cpp:32] Datatype class: H5T_FLOAT
^CI1019 00:46:42.073624 127337 net.cpp:150] Setting up data
I1019 00:46:42.073796 127337 net.cpp:157] Top shape: 100 1 1 10 (1000)
I1019 00:46:42.073824 127337 net.cpp:157] Top shape: 100 1 32 32 (102400)
I1019 00:46:42.073838 127337 net.cpp:165] Memory required for data: 413600
I1019 00:46:42.073879 127337 layer_factory.hpp:77] Creating layer fc1
I1019 00:46:42.074012 127337 net.cpp:100] Creating Layer fc1
I1019 00:46:42.074034 127337 net.cpp:434] fc1 <- data
I1019 00:46:42.074066 127337 net.cpp:408] fc1 -> fc1
I1019 00:46:42.077371 127337 net.cpp:150] Setting up fc1
I1019 00:46:42.077410 127337 net.cpp:157] Top shape: 100 1024 (102400)
I1019 00:46:42.077425 127337 net.cpp:165] Memory required for data: 823200
I1019 00:46:42.077457 127337 layer_factory.hpp:77] Creating layer reshape
I1019 00:46:42.077494 127337 net.cpp:100] Creating Layer reshape
I1019 00:46:42.077520 127337 net.cpp:434] reshape <- fc1
I1019 00:46:42.077540 127337 net.cpp:408] reshape -> reshape
I1019 00:46:42.077643 127337 net.cpp:150] Setting up reshape
I1019 00:46:42.077677 127337 net.cpp:157] Top shape: 100 1 32 32 (102400)
I1019 00:46:42.077689 127337 net.cpp:165] Memory required for data: 1232800
I1019 00:46:42.077703 127337 layer_factory.hpp:77] Creating layer conv1
I1019 00:46:42.077767 127337 net.cpp:100] Creating Layer conv1
I1019 00:46:42.077785 127337 net.cpp:434] conv1 <- reshape
I1019 00:46:42.077805 127337 net.cpp:408] conv1 -> conv1
I1019 00:46:42.078162 127337 net.cpp:150] Setting up conv1
I1019 00:46:42.078192 127337 net.cpp:157] Top shape: 100 128 32 32 (13107200)
I1019 00:46:42.078204 127337 net.cpp:165] Memory required for data: 53661600
I1019 00:46:42.078225 127337 layer_factory.hpp:77] Creating layer relu1
I1019 00:46:42.078253 127337 net.cpp:100] Creating Layer relu1
I1019 00:46:42.078269 127337 net.cpp:434] relu1 <- conv1
I1019 00:46:42.078286 127337 net.cpp:408] relu1 -> relu1
I1019 00:46:42.078328 127337 net.cpp:150] Setting up relu1
I1019 00:46:42.078351 127337 net.cpp:157] Top shape: 100 128 32 32 (13107200)
I1019 00:46:42.078364 127337 net.cpp:165] Memory required for data: 106090400
I1019 00:46:42.078377 127337 layer_factory.hpp:77] Creating layer conv2
I1019 00:46:42.078398 127337 net.cpp:100] Creating Layer conv2
I1019 00:46:42.078413 127337 net.cpp:434] conv2 <- relu1
I1019 00:46:42.078429 127337 net.cpp:408] conv2 -> conv2
I1019 00:46:42.079181 127337 net.cpp:150] Setting up conv2
I1019 00:46:42.079206 127337 net.cpp:157] Top shape: 100 64 32 32 (6553600)
I1019 00:46:42.079219 127337 net.cpp:165] Memory required for data: 132304800
I1019 00:46:42.079246 127337 layer_factory.hpp:77] Creating layer relu2
I1019 00:46:42.079269 127337 net.cpp:100] Creating Layer relu2
I1019 00:46:42.079283 127337 net.cpp:434] relu2 <- conv2
I1019 00:46:42.079299 127337 net.cpp:408] relu2 -> relu2
I1019 00:46:42.079340 127337 net.cpp:150] Setting up relu2
I1019 00:46:42.079358 127337 net.cpp:157] Top shape: 100 64 32 32 (6553600)
I1019 00:46:42.079371 127337 net.cpp:165] Memory required for data: 158519200
I1019 00:46:42.079383 127337 layer_factory.hpp:77] Creating layer conv3
I1019 00:46:42.079403 127337 net.cpp:100] Creating Layer conv3
I1019 00:46:42.079416 127337 net.cpp:434] conv3 <- relu2
I1019 00:46:42.079433 127337 net.cpp:408] conv3 -> conv3
I1019 00:46:42.081490 127337 net.cpp:150] Setting up conv3
I1019 00:46:42.081524 127337 net.cpp:157] Top shape: 100 32 32 32 (3276800)
I1019 00:46:42.081537 127337 net.cpp:165] Memory required for data: 171626400
I1019 00:46:42.081555 127337 layer_factory.hpp:77] Creating layer relu3
I1019 00:46:42.081574 127337 net.cpp:100] Creating Layer relu3
I1019 00:46:42.081588 127337 net.cpp:434] relu3 <- conv3
I1019 00:46:42.081605 127337 net.cpp:408] relu3 -> relu3
I1019 00:46:42.081647 127337 net.cpp:150] Setting up relu3
I1019 00:46:42.081666 127337 net.cpp:157] Top shape: 100 32 32 32 (3276800)
I1019 00:46:42.081679 127337 net.cpp:165] Memory required for data: 184733600
I1019 00:46:42.081693 127337 layer_factory.hpp:77] Creating layer conv4
I1019 00:46:42.081727 127337 net.cpp:100] Creating Layer conv4
I1019 00:46:42.081758 127337 net.cpp:434] conv4 <- relu3
I1019 00:46:42.081797 127337 net.cpp:408] conv4 -> conv4
I1019 00:46:42.082628 127337 net.cpp:150] Setting up conv4
I1019 00:46:42.082657 127337 net.cpp:157] Top shape: 100 32 32 32 (3276800)
I1019 00:46:42.082670 127337 net.cpp:165] Memory required for data: 197840800
I1019 00:46:42.082692 127337 layer_factory.hpp:77] Creating layer relu4
I1019 00:46:42.082710 127337 net.cpp:100] Creating Layer relu4
I1019 00:46:42.082723 127337 net.cpp:434] relu4 <- conv4
I1019 00:46:42.082739 127337 net.cpp:408] relu4 -> relu4
I1019 00:46:42.082782 127337 net.cpp:150] Setting up relu4
I1019 00:46:42.082800 127337 net.cpp:157] Top shape: 100 32 32 32 (3276800)
I1019 00:46:42.082813 127337 net.cpp:165] Memory required for data: 210948000
I1019 00:46:42.082826 127337 layer_factory.hpp:77] Creating layer conv5
I1019 00:46:42.082849 127337 net.cpp:100] Creating Layer conv5
I1019 00:46:42.082862 127337 net.cpp:434] conv5 <- relu4
I1019 00:46:42.082880 127337 net.cpp:408] conv5 -> conv5
I1019 00:46:42.083475 127337 net.cpp:150] Setting up conv5
I1019 00:46:42.083499 127337 net.cpp:157] Top shape: 100 16 32 32 (1638400)
I1019 00:46:42.083513 127337 net.cpp:165] Memory required for data: 217501600
I1019 00:46:42.083529 127337 layer_factory.hpp:77] Creating layer relu5
I1019 00:46:42.083550 127337 net.cpp:100] Creating Layer relu5
I1019 00:46:42.083564 127337 net.cpp:434] relu5 <- conv5
I1019 00:46:42.083581 127337 net.cpp:408] relu5 -> relu5
I1019 00:46:42.083622 127337 net.cpp:150] Setting up relu5
I1019 00:46:42.083649 127337 net.cpp:157] Top shape: 100 16 32 32 (1638400)
I1019 00:46:42.083662 127337 net.cpp:165] Memory required for data: 224055200
I1019 00:46:42.083674 127337 layer_factory.hpp:77] Creating layer conv6
I1019 00:46:42.083705 127337 net.cpp:100] Creating Layer conv6
I1019 00:46:42.083719 127337 net.cpp:434] conv6 <- relu5
I1019 00:46:42.083736 127337 net.cpp:408] conv6 -> conv6
I1019 00:46:42.084985 127337 net.cpp:150] Setting up conv6
I1019 00:46:42.085016 127337 net.cpp:157] Top shape: 100 16 32 32 (1638400)
I1019 00:46:42.085028 127337 net.cpp:165] Memory required for data: 230608800
I1019 00:46:42.085047 127337 layer_factory.hpp:77] Creating layer relu6
I1019 00:46:42.085062 127337 net.cpp:100] Creating Layer relu6
I1019 00:46:42.085077 127337 net.cpp:434] relu6 <- conv6
I1019 00:46:42.085093 127337 net.cpp:408] relu6 -> relu6
I1019 00:46:42.085134 127337 net.cpp:150] Setting up relu6
I1019 00:46:42.085152 127337 net.cpp:157] Top shape: 100 16 32 32 (1638400)
I1019 00:46:42.085165 127337 net.cpp:165] Memory required for data: 237162400
I1019 00:46:42.085176 127337 layer_factory.hpp:77] Creating layer conv7
I1019 00:46:42.085204 127337 net.cpp:100] Creating Layer conv7
I1019 00:46:42.085218 127337 net.cpp:434] conv7 <- relu6
I1019 00:46:42.085235 127337 net.cpp:408] conv7 -> conv7
I1019 00:46:42.085559 127337 net.cpp:150] Setting up conv7
I1019 00:46:42.085582 127337 net.cpp:157] Top shape: 100 1 32 32 (102400)
I1019 00:46:42.085593 127337 net.cpp:165] Memory required for data: 237572000
I1019 00:46:42.085609 127337 layer_factory.hpp:77] Creating layer trainLoss
I1019 00:46:42.085641 127337 net.cpp:100] Creating Layer trainLoss
I1019 00:46:42.085655 127337 net.cpp:434] trainLoss <- conv7
I1019 00:46:42.085669 127337 net.cpp:434] trainLoss <- label
I1019 00:46:42.085687 127337 net.cpp:408] trainLoss -> trainLoss
…
