convolution_param {
    num_output: 16
    pad: 2
    kernel_size: 5
    stride: 1
    weight_filler {
      type: "gaussian"
      std: 0.1
    }
    bias_filler {
      type: "constant"
      value: 0
    }
  }
}
layer {
  name: "relu5"
  type: "ReLU"
  bottom: "conv5"
  top: "conv5"
}
layer {
  name: "conv6"
  type: "Convolution"
  bottom: "conv5"
  top: "conv6"
  param {
    lr_mult: 0.1
  }
  param {
    lr_mult: 0.1
  }
  convolution_param {
    num_output: 1
    pad: 2
    kernel_size: 5
    stride: 1
    weight_filler {
      type: "gaussian"
      std: 0.1
    }
    bias_filler {
      type: "constant"
      value: 0
    }
  }
}
layer {
  name: "reshape2"
  type: "Reshape"
  bottom: "conv6"
  top: "conv7"
  reshape_param {
    shape {
      dim: 0
      dim: -1
    }
  }
}
layer {
  name: "trainLoss"
  type: "EuclideanLoss"
  bottom: "conv7"
  bottom: "label"
  top: "trainLoss"
}
I1017 18:48:42.180889 57905 layer_factory.hpp:77] Creating layer data
I1017 18:48:42.180939 57905 net.cpp:100] Creating Layer data
I1017 18:48:42.180951 57905 net.cpp:408] data -> data
I1017 18:48:42.180989 57905 net.cpp:408] data -> label
I1017 18:48:42.181010 57905 hdf5_data_layer.cpp:79] Loading list of HDF5 filenames from: trainCNN_cr100.txt
I1017 18:48:42.181046 57905 hdf5_data_layer.cpp:93] Number of HDF5 files: 1
I1017 18:48:42.182265 57905 hdf5.cpp:32] Datatype class: H5T_FLOAT
I1017 18:48:44.625607 57905 net.cpp:150] Setting up data
I1017 18:48:44.625705 57905 net.cpp:157] Top shape: 100 1 1 10 (1000)
I1017 18:48:44.625716 57905 net.cpp:157] Top shape: 100 1 32 32 (102400)
I1017 18:48:44.625725 57905 net.cpp:165] Memory required for data: 413600
I1017 18:48:44.625742 57905 layer_factory.hpp:77] Creating layer fc1
I1017 18:48:44.625820 57905 net.cpp:100] Creating Layer fc1
I1017 18:48:44.625839 57905 net.cpp:434] fc1 <- data
I1017 18:48:44.625859 57905 net.cpp:408] fc1 -> fc1
I1017 18:48:44.630754 57905 net.cpp:150] Setting up fc1
I1017 18:48:44.630790 57905 net.cpp:157] Top shape: 100 10240 (1024000)
I1017 18:48:44.630800 57905 net.cpp:165] Memory required for data: 4509600
I1017 18:48:44.630820 57905 layer_factory.hpp:77] Creating layer reshape
I1017 18:48:44.630844 57905 net.cpp:100] Creating Layer reshape
I1017 18:48:44.630856 57905 net.cpp:434] reshape <- fc1
I1017 18:48:44.630866 57905 net.cpp:408] reshape -> reshape
I1017 18:48:44.630908 57905 net.cpp:150] Setting up reshape
I1017 18:48:44.630923 57905 net.cpp:157] Top shape: 100 10 32 32 (1024000)
I1017 18:48:44.630931 57905 net.cpp:165] Memory required for data: 8605600
I1017 18:48:44.630939 57905 layer_factory.hpp:77] Creating layer conv1
I1017 18:48:44.630970 57905 net.cpp:100] Creating Layer conv1
I1017 18:48:44.630980 57905 net.cpp:434] conv1 <- reshape
I1017 18:48:44.630990 57905 net.cpp:408] conv1 -> conv1
I1017 18:48:44.632203 57905 net.cpp:150] Setting up conv1
I1017 18:48:44.632236 57905 net.cpp:157] Top shape: 100 64 32 32 (6553600)
I1017 18:48:44.632246 57905 net.cpp:165] Memory required for data: 34820000
I1017 18:48:44.632259 57905 layer_factory.hpp:77] Creating layer relu1
I1017 18:48:44.632278 57905 net.cpp:100] Creating Layer relu1
I1017 18:48:44.632288 57905 net.cpp:434] relu1 <- conv1
I1017 18:48:44.632297 57905 net.cpp:395] relu1 -> conv1 (in-place)
I1017 18:48:44.632313 57905 net.cpp:150] Setting up relu1
I1017 18:48:44.632323 57905 net.cpp:157] Top shape: 100 64 32 32 (6553600)
I1017 18:48:44.632330 57905 net.cpp:165] Memory required for data: 61034400
I1017 18:48:44.632339 57905 layer_factory.hpp:77] Creating layer conv2
I1017 18:48:44.632354 57905 net.cpp:100] Creating Layer conv2
I1017 18:48:44.632362 57905 net.cpp:434] conv2 <- conv1
I1017 18:48:44.632372 57905 net.cpp:408] conv2 -> conv2
I1017 18:48:44.633167 57905 net.cpp:150] Setting up conv2
I1017 18:48:44.633199 57905 net.cpp:157] Top shape: 100 32 32 32 (3276800)
I1017 18:48:44.633208 57905 net.cpp:165] Memory required for data: 74141600
I1017 18:48:44.633224 57905 layer_factory.hpp:77] Creating layer relu2
I1017 18:48:44.633234 57905 net.cpp:100] Creating Layer relu2
I1017 18:48:44.633244 57905 net.cpp:434] relu2 <- conv2
I1017 18:48:44.633252 57905 net.cpp:395] relu2 -> conv2 (in-place)
I1017 18:48:44.633286 57905 net.cpp:150] Setting up relu2
I1017 18:48:44.633297 57905 net.cpp:157] Top shape: 100 32 32 32 (3276800)
I1017 18:48:44.633306 57905 net.cpp:165] Memory required for data: 87248800
I1017 18:48:44.633314 57905 layer_factory.hpp:77] Creating layer conv3
I1017 18:48:44.633328 57905 net.cpp:100] Creating Layer conv3
I1017 18:48:44.633337 57905 net.cpp:434] conv3 <- conv2
I1017 18:48:44.633347 57905 net.cpp:408] conv3 -> conv3
I1017 18:48:44.634902 57905 net.cpp:150] Setting up conv3
I1017 18:48:44.634934 57905 net.cpp:157] Top shape: 100 32 32 32 (3276800)
I1017 18:48:44.634943 57905 net.cpp:165] Memory required for data: 100356000
I1017 18:48:44.634955 57905 layer_factory.hpp:77] Creating layer relu3
I1017 18:48:44.634970 57905 net.cpp:100] Creating Layer relu3
I1017 18:48:44.634979 57905 net.cpp:434] relu3 <- conv3
I1017 18:48:44.634989 57905 net.cpp:395] relu3 -> conv3 (in-place)
I1017 18:48:44.635000 57905 net.cpp:150] Setting up relu3
I1017 18:48:44.635010 57905 net.cpp:157] Top shape: 100 32 32 32 (3276800)
I1017 18:48:44.635017 57905 net.cpp:165] Memory required for data: 113463200
I1017 18:48:44.635025 57905 layer_factory.hpp:77] Creating layer conv4
I1017 18:48:44.635038 57905 net.cpp:100] Creating Layer conv4
I1017 18:48:44.635046 57905 net.cpp:434] conv4 <- conv3
I1017 18:48:44.635057 57905 net.cpp:408] conv4 -> conv4
I1017 18:48:44.635680 57905 net.cpp:150] Setting up conv4
I1017 18:48:44.635707 57905 net.cpp:157] Top shape: 100 16 32 32 (1638400)
I1017 18:48:44.635715 57905 net.cpp:165] Memory required for data: 120016800
I1017 18:48:44.635730 57905 layer_factory.hpp:77] Creating layer relu4
I1017 18:48:44.635740 57905 net.cpp:100] Creating Layer relu4
I1017 18:48:44.635751 57905 net.cpp:434] relu4 <- conv4
I1017 18:48:44.635759 57905 net.cpp:395] relu4 -> conv4 (in-place)
I1017 18:48:44.635769 57905 net.cpp:150] Setting up relu4
I1017 18:48:44.635778 57905 net.cpp:157] Top shape: 100 16 32 32 (1638400)
I1017 18:48:44.635785 57905 net.cpp:165] Memory required for data: 126570400
I1017 18:48:44.635793 57905 layer_factory.hpp:77] Creating layer conv5
I1017 18:48:44.635807 57905 net.cpp:100] Creating Layer conv5
I1017 18:48:44.635815 57905 net.cpp:434] conv5 <- conv4
I1017 18:48:44.635825 57905 net.cpp:408] conv5 -> conv5
I1017 18:48:44.636240 57905 net.cpp:150] Setting up conv5
I1017 18:48:44.636255 57905 net.cpp:157] Top shape: 100 16 32 32 (1638400)
I1017 18:48:44.636262 57905 net.cpp:165] Memory required for data: 133124000
I1017 18:48:44.636274 57905 layer_factory.hpp:77] Creating layer relu5
I1017 18:48:44.636284 57905 net.cpp:100] Creating Layer relu5
I1017 18:48:44.636292 57905 net.cpp:434] relu5 <- conv5
I1017 18:48:44.636301 57905 net.cpp:395] relu5 -> conv5 (in-place)
I1017 18:48:44.636312 57905 net.cpp:150] Setting up relu5
I1017 18:48:44.636320 57905 net.cpp:157] Top shape: 100 16 32 32 (1638400)
I1017 18:48:44.636327 57905 net.cpp:165] Memory required for data: 139677600
I1017 18:48:44.636335 57905 layer_factory.hpp:77] Creating layer conv6
I1017 18:48:44.636348 57905 net.cpp:100] Creating Layer conv6
I1017 18:48:44.636355 57905 net.cpp:434] conv6 <- conv5
I1017 18:48:44.636365 57905 net.cpp:408] conv6 -> conv6
I1017 18:48:44.636587 57905 net.cpp:150] Setting up conv6
I1017 18:48:44.636602 57905 net.cpp:157] Top shape: 100 1 32 32 (102400)
I1017 18:48:44.636610 57905 net.cpp:165] Memory required for data: 140087200
I1017 18:48:44.636620 57905 layer_factory.hpp:77] Creating layer reshape2
I1017 18:48:44.636632 57905 net.cpp:100] Creating Layer reshape2
I1017 18:48:44.636641 57905 net.cpp:434] reshape2 <- conv6
I1017 18:48:44.636651 57905 net.cpp:408] reshape2 -> conv7
I1017 18:48:44.636678 57905 net.cpp:150] Setting up reshape2
I1017 18:48:44.636690 57905 net.cpp:157] Top shape: 100 1024 (102400)
I1017 18:48:44.636698 57905 net.cpp:165] Memory required for data: 140496800
I1017 18:48:44.636705 57905 layer_factory.hpp:77] Creating layer trainLoss
I1017 18:48:44.636724 57905 net.cpp:100] Creating Layer trainLoss
I1017 18:48:44.636734 57905 net.cpp:434] trainLoss <- conv7
I1017 18:48:44.636754 57905 net.cpp:434] trainLoss <- label
I1017 18:48:44.636765 57905 net.cpp:408] trainLoss -> trainLoss
…
I1017 18:48:44.637676 57905 solver.cpp:181] Creating test net (#0) specified by net file: videoNetCNN_cr100_model_10172016.prototxt
I1017 18:48:44.637727 57905 net.cpp:322] The NetState phase (1) differed from the phase (0) specified by a rule in layer data
I1017 18:48:44.637951 57905 net.cpp:58] Initializing net from parameters:
name: "videoNetCNN_cr100_model.prototxt"
state {
  phase: TEST
}
layer {
  name: "data"
  type: "HDF5Data"
  top: "data"
  top: "label"
  include {
    phase: TEST
  }
  hdf5_data_param {
    source: "valCNN_cr100.txt"
    batch_size: 100
  }
}
layer {
  name: "fc1"
  type: "InnerProduct"
  bottom: "data"
  top: "fc1"
  param {
    lr_mult: 1
    decay_mult: 1
  }
  param {
    lr_mult: 2
    decay_mult: 0
  }
  inner_product_param {
    num_output: 10240
    weight_filler {
      type: "gaussian"
      std: 0.01
    }
    bias_filler {
      type: "constant"
      value: 0
    }
  }
}
layer {
  name: "reshape"
  type: "Reshape"
  bottom: "fc1"
  top: "reshape"
  reshape_param {
    shape {
      dim: 0
      dim: 10
      dim: 32
      dim: 32
    }
  }
}
layer {
  name: "conv1"
  type: "Convolution"
  bottom: "reshape"
  top: "conv1"
  param {
    lr_mult: 1
  }
  param {
    lr_mult: 0.1
  }
  convolution_param {
    num_output: 64
    pad: 2
    kernel_size: 5
    stride: 1
    weight_filler {
      type: "gaussian"
      std: 0.1
    }
    bias_filler {
      type: "constant"
      value: 0
    }
  }
}
layer {
  name: "relu1"
  type: "ReLU"
  bottom: "conv1"
  top: "conv1"
}
layer {
  name: "conv2"
  type: "Convolution"
  bottom: "conv1"
  top: "conv2"
  param {
    lr_mult: 1
  }
  param {
    lr_mult: 0.1
  }
  convolution_param {
    num_output: 32
    pad: 0
    kernel_size: 1
    stride: 1
    weight_filler {
      type: "gaussian"
      std: 0.1
    }
    bias_filler {
      type: "constant"
      value: 0
    }
  }
}
layer {
  name: "relu2"
  type: "ReLU"
  bottom: "conv2"
  top: "conv2"
}
layer {
  name: "conv3"
  type: "Convolution"
  bottom: "conv2"
  top: "conv3"
  param {
    lr_mult: 0.1
  }
  param {
    lr_mult: 0.1
  }
  convolution_param {
    num_output: 32
    pad: 2
    kernel_size: 5
    stride: 1
    weight_filler {
      type: "gaussian"
      std: 0.1
    }
    bias_filler {
      type: "constant"
      value: 0
    }
  }
}
layer {
  name: "relu3"
  type: "ReLU"
  bottom: "conv3"
  top: "conv3"
}
layer {
  name: "conv4"
  type: "Convolution"
  bottom: "conv3"
  top: "conv4"
  param {
    lr_mult: 1
  }
  param {
    lr_mult: 0.1
  }
  convolution_param {
    num_output: 16
    pad: 2
    kernel_size: 5
    stride: 1
    weight_filler {
      type: "gaussian"
      std: 0.1
    }
    bias_filler {
      type: "constant"
      value: 0
    }
  }
}
layer {
  name: "relu4"
  type: "ReLU"
  bottom: "conv4"
  top: "conv4"
}
layer {
  name: "conv5"
  type: "Convolution"
  bottom: "conv4"
  top: "conv5"
  param {
    lr_mult: 1
  }
  param {
    lr_mult: 0.1
  }
  convolution_param {
    num_output: 16
    pad: 2
    kernel_size: 5
    stride: 1
    weight_filler {
      type: "gaussian"
      std: 0.1
    }
    bias_filler {
      type: "constant"
      value: 0
    }
  }
}
layer {
  name: "relu5"
  type: "ReLU"
  bottom: "conv5"
  top: "conv5"
}
layer {
  name: "conv6"
  type: "Convolution"
  bottom: "conv5"
  top: "conv6"
  param {
    lr_mult: 0.1
  }
  param {
    lr_mult: 0.1
  }
  convolution_param {
    num_output: 1
    pad: 2
    kernel_size: 5
    stride: 1
    weight_filler {
      type: "gaussian"
      std: 0.1
    }
    bias_filler {
      type: "constant"
      value: 0
    }
  }
}
layer {
  name: "reshape2"
  type: "Reshape"
  bottom: "conv6"
  top: "conv7"
  reshape_param {
    shape {
      dim: 0
      dim: -1
    }
  }
}
layer {
  name: "trainLoss"
  type: "EuclideanLoss"
  bottom: "conv7"
  bottom: "label"
  top: "trainLoss"
}
layer {
  name: "testLoss"
  type: "EuclideanLoss"
  bottom: "conv7"
  bottom: "label"
  top: "testLoss"
  include {
    phase: TEST
  }
}
I1017 18:48:44.638825 57905 layer_factory.hpp:77] Creating layer data
I1017 18:48:44.638854 57905 net.cpp:100] Creating Layer data
I1017 18:48:44.638875 57905 net.cpp:408] data -> data
I1017 18:48:44.638888 57905 net.cpp:408] data -> label
I1017 18:48:44.638901 57905 hdf5_data_layer.cpp:79] Loading list of HDF5 filenames from: valCNN_cr100.txt
I1017 18:48:44.638923 57905 hdf5_data_layer.cpp:93] Number of HDF5 files: 1
I1017 18:48:45.173226 57905 net.cpp:150] Setting up data
I1017 18:48:45.173285 57905 net.cpp:157] Top shape: 100 1 1 10 (1000)
I1017 18:48:45.173295 57905 net.cpp:157] Top shape: 100 1 32 32 (102400)
I1017 18:48:45.173303 57905 net.cpp:165] Memory required for data: 413600
I1017 18:48:45.173315 57905 layer_factory.hpp:77] Creating layer label_data_1_split
I1017 18:48:45.173332 57905 net.cpp:100] Creating Layer label_data_1_split
I1017 18:48:45.173342 57905 net.cpp:434] label_data_1_split <- label
I1017 18:48:45.173354 57905 net.cpp:408] label_data_1_split -> label_data_1_split_0
I1017 18:48:45.173370 57905 net.cpp:408] label_data_1_split -> label_data_1_split_1
I1017 18:48:45.173418 57905 net.cpp:150] Setting up label_data_1_split
I1017 18:48:45.173434 57905 net.cpp:157] Top shape: 100 1 32 32 (102400)
I1017 18:48:45.173444 57905 net.cpp:157] Top shape: 100 1 32 32 (102400)
I1017 18:48:45.173451 57905 net.cpp:165] Memory required for data: 1232800
I1017 18:48:45.173460 57905 layer_factory.hpp:77] Creating layer fc1
I1017 18:48:45.173473 57905 net.cpp:100] Creating Layer fc1
I1017 18:48:45.173482 57905 net.cpp:434] fc1 <- data
I1017 18:48:45.173493 57905 net.cpp:408] fc1 -> fc1
I1017 18:48:45.176836 57905 net.cpp:150] Setting up fc1
I1017 18:48:45.176864 57905 net.cpp:157] Top shape: 100 10240 (1024000)
I1017 18:48:45.176873 57905 net.cpp:165] Memory required for data: 5328800
I1017 18:48:45.176888 57905 layer_factory.hpp:77] Creating layer reshape
I1017 18:48:45.176901 57905 net.cpp:100] Creating Layer reshape
I1017 18:48:45.176910 57905 net.cpp:434] reshape <- fc1
I1017 18:48:45.176920 57905 net.cpp:408] reshape -> reshape
I1017 18:48:45.176952 57905 net.cpp:150] Setting up reshape
I1017 18:48:45.176964 57905 net.cpp:157] Top shape: 100 10 32 32 (1024000)
I1017 18:48:45.176973 57905 net.cpp:165] Memory required for data: 9424800
I1017 18:48:45.176981 57905 layer_factory.hpp:77] Creating layer conv1
I1017 18:48:45.176998 57905 net.cpp:100] Creating Layer conv1
I1017 18:48:45.177007 57905 net.cpp:434] conv1 <- reshape
I1017 18:48:45.177058 57905 net.cpp:408] conv1 -> conv1
I1017 18:48:45.177774 57905 net.cpp:150] Setting up conv1
I1017 18:48:45.177803 57905 net.cpp:157] Top shape: 100 64 32 32 (6553600)
I1017 18:48:45.177810 57905 net.cpp:165] Memory required for data: 35639200
I1017 18:48:45.177824 57905 layer_factory.hpp:77] Creating layer relu1
I1017 18:48:45.177834 57905 net.cpp:100] Creating Layer relu1
I1017 18:48:45.177842 57905 net.cpp:434] relu1 <- conv1
I1017 18:48:45.177852 57905 net.cpp:395] relu1 -> conv1 (in-place)
I1017 18:48:45.177863 57905 net.cpp:150] Setting up relu1
I1017 18:48:45.177872 57905 net.cpp:157] Top shape: 100 64 32 32 (6553600)
I1017 18:48:45.177880 57905 net.cpp:165] Memory required for data: 61853600
I1017 18:48:45.177886 57905 layer_factory.hpp:77] Creating layer conv2
I1017 18:48:45.177898 57905 net.cpp:100] Creating Layer conv2
I1017 18:48:45.177924 57905 net.cpp:434] conv2 <- conv1
I1017 18:48:45.177934 57905 net.cpp:408] conv2 -> conv2
I1017 18:48:45.178222 57905 net.cpp:150] Setting up conv2
I1017 18:48:45.178249 57905 net.cpp:157] Top shape: 100 32 32 32 (3276800)
I1017 18:48:45.178257 57905 net.cpp:165] Memory required for data: 74960800
I1017 18:48:45.178270 57905 layer_factory.hpp:77] Creating layer relu2
I1017 18:48:45.178282 57905 net.cpp:100] Creating Layer relu2
I1017 18:48:45.178289 57905 net.cpp:434] relu2 <- conv2
I1017 18:48:45.178299 57905 net.cpp:395] relu2 -> conv2 (in-place)
I1017 18:48:45.178309 57905 net.cpp:150] Setting up relu2
I1017 18:48:45.178318 57905 net.cpp:157] Top shape: 100 32 32 32 (3276800)
I1017 18:48:45.178326 57905 net.cpp:165] Memory required for data: 88068000
I1017 18:48:45.178333 57905 layer_factory.hpp:77] Creating layer conv3
I1017 18:48:45.178349 57905 net.cpp:100] Creating Layer conv3
I1017 18:48:45.178356 57905 net.cpp:434] conv3 <- conv2
I1017 18:48:45.178366 57905 net.cpp:408] conv3 -> conv3
I1017 18:48:45.179368 57905 net.cpp:150] Setting up conv3
I1017 18:48:45.179395 57905 net.cpp:157] Top shape: 100 32 32 32 (3276800)
I1017 18:48:45.179404 57905 net.cpp:165] Memory required for data: 101175200
I1017 18:48:45.179414 57905 layer_factory.hpp:77] Creating layer relu3
I1017 18:48:45.179424 57905 net.cpp:100] Creating Layer relu3
I1017 18:48:45.179431 57905 net.cpp:434] relu3 <- conv3
I1017 18:48:45.179440 57905 net.cpp:395] relu3 -> conv3 (in-place)
I1017 18:48:45.179451 57905 net.cpp:150] Setting up relu3
I1017 18:48:45.179461 57905 net.cpp:157] Top shape: 100 32 32 32 (3276800)
I1017 18:48:45.179467 57905 net.cpp:165] Memory required for data: 114282400
I1017 18:48:45.179476 57905 layer_factory.hpp:77] Creating layer conv4
I1017 18:48:45.179487 57905 net.cpp:100] Creating Layer conv4
I1017 18:48:45.179496 57905 net.cpp:434] conv4 <- conv3
I1017 18:48:45.179505 57905 net.cpp:408] conv4 -> conv4
I1017 18:48:45.180106 57905 net.cpp:150] Setting up conv4
I1017 18:48:45.180133 57905 net.cpp:157] Top shape: 100 16 32 32 (1638400)
I1017 18:48:45.180141 57905 net.cpp:165] Memory required for data: 120836000
I1017 18:48:45.180153 57905 layer_factory.hpp:77] Creating layer relu4
I1017 18:48:45.180164 57905 net.cpp:100] Creating Layer relu4
I1017 18:48:45.180171 57905 net.cpp:434] relu4 <- conv4
I1017 18:48:45.180181 57905 net.cpp:395] relu4 -> conv4 (in-place)
I1017 18:48:45.180191 57905 net.cpp:150] Setting up relu4
I1017 18:48:45.180200 57905 net.cpp:157] Top shape: 100 16 32 32 (1638400)
I1017 18:48:45.180208 57905 net.cpp:165] Memory required for data: 127389600
I1017 18:48:45.180217 57905 layer_factory.hpp:77] Creating layer conv5
I1017 18:48:45.180228 57905 net.cpp:100] Creating Layer conv5
I1017 18:48:45.180235 57905 net.cpp:434] conv5 <- conv4
I1017 18:48:45.180245 57905 net.cpp:408] conv5 -> conv5
I1017 18:48:45.180649 57905 net.cpp:150] Setting up conv5
I1017 18:48:45.180675 57905 net.cpp:157] Top shape: 100 16 32 32 (1638400)
I1017 18:48:45.180683 57905 net.cpp:165] Memory required for data: 133943200
I1017 18:48:45.180693 57905 layer_factory.hpp:77] Creating layer relu5
I1017 18:48:45.180704 57905 net.cpp:100] Creating Layer relu5
I1017 18:48:45.180723 57905 net.cpp:434] relu5 <- conv5
I1017 18:48:45.180732 57905 net.cpp:395] relu5 -> conv5 (in-place)
I1017 18:48:45.180744 57905 net.cpp:150] Setting up relu5
I1017 18:48:45.180753 57905 net.cpp:157] Top shape: 100 16 32 32 (1638400)
I1017 18:48:45.180760 57905 net.cpp:165] Memory required for data: 140496800
I1017 18:48:45.180768 57905 layer_factory.hpp:77] Creating layer conv6
I1017 18:48:45.180780 57905 net.cpp:100] Creating Layer conv6
I1017 18:48:45.180788 57905 net.cpp:434] conv6 <- conv5
I1017 18:48:45.180797 57905 net.cpp:408] conv6 -> conv6
I1017 18:48:45.181020 57905 net.cpp:150] Setting up conv6
I1017 18:48:45.181035 57905 net.cpp:157] Top shape: 100 1 32 32 (102400)
I1017 18:48:45.181053 57905 net.cpp:165] Memory required for data: 140906400
I1017 18:48:45.181064 57905 layer_factory.hpp:77] Creating layer reshape2
I1017 18:48:45.181076 57905 net.cpp:100] Creating Layer reshape2
I1017 18:48:45.181083 57905 net.cpp:434] reshape2 <- conv6
I1017 18:48:45.181093 57905 net.cpp:408] reshape2 -> conv7
I1017 18:48:45.181120 57905 net.cpp:150] Setting up reshape2
I1017 18:48:45.181131 57905 net.cpp:157] Top shape: 100 1024 (102400)
I1017 18:48:45.181139 57905 net.cpp:165] Memory required for data: 141316000
I1017 18:48:45.181148 57905 layer_factory.hpp:77] Creating layer conv7_reshape2_0_split
I1017 18:48:45.181160 57905 net.cpp:100] Creating Layer conv7_reshape2_0_split
I1017 18:48:45.181169 57905 net.cpp:434] conv7_reshape2_0_split <- conv7
I1017 18:48:45.181177 57905 net.cpp:408] conv7_reshape2_0_split -> conv7_reshape2_0_split_0
I1017 18:48:45.181188 57905 net.cpp:408] conv7_reshape2_0_split -> conv7_reshape2_0_split_1
I1017 18:48:45.181224 57905 net.cpp:150] Setting up conv7_reshape2_0_split
I1017 18:48:45.181238 57905 net.cpp:157] Top shape: 100 1024 (102400)
I1017 18:48:45.181247 57905 net.cpp:157] Top shape: 100 1024 (102400)
I1017 18:48:45.181255 57905 net.cpp:165] Memory required for data: 142135200
I1017 18:48:45.181264 57905 layer_factory.hpp:77] Creating layer trainLoss
I1017 18:48:45.181275 57905 net.cpp:100] Creating Layer trainLoss
I1017 18:48:45.181283 57905 net.cpp:434] trainLoss <- conv7_reshape2_0_split_0
I1017 18:48:45.181293 57905 net.cpp:434] trainLoss <- label_data_1_split_0
I1017 18:48:45.181303 57905 net.cpp:408] trainLoss -> trainLoss
…
